model.pt (torch, 113765 bytes, 6 tensors)

0.weight f4 [128, 200]
-0.015074706 -0.10230211 -0.07606913 0.063517764 -0.118691586 0.10432057 0.018997358 0.03171178
-0.08368687 -0.033726256 0.056185145 0.00740753 0.031737898 -0.089382835 -0.069299504 0.0019526756
-0.04297803 -0.030909201 -0.004807163 0.015783824 0.0012966689 0.11151982 0.13379078 -0.03389914
0.040677924 0.038753353 0.006499762 0.01554848 -0.028692981 -0.09121392 -0.033621717 0.005921206
0.019227145 0.03409777 0.063518815 0.0042958106 0.17279328 0.04511405 0.0033554903 0.036483113
0.025099907 0.006529193 -0.017239382 0.077257834 -0.0558142 0.02458207 0.013947732 -0.07947247
-0.029334093 -0.02309947 -0.0060819397 -0.13362098 0.09764775 -0.04395045 -0.16302727 -0.06437185
0.033619415 -0.0112122465 0.19094492 0.091254756 0.0906269 0.030369906 -0.13977952 -0.102198586
0.018926332 -0.05977884 -0.07898629 -0.040873956 0.017002879 -0.12669288 -0.06542032 -0.06469872
-0.03213828 -0.047966734 -0.05877468 -0.025132166 -0.019519588 -0.020469345 0.15662509 -0.11004439
0.016616857 -0.013741627 0.052282684 -0.04522297 -0.0067566135 -0.021335032 0.03394456 0.06100682
-0.052363984 0.06588072 -0.055147775 0.071853176 0.03796783 0.043711312 0.03918991 -0.19795449
0.013355493 0.057317965 0.012917246 -0.11549588 0.032798126 0.08562143 -0.04775568 0.009922635
-0.006009773 -0.009650338 -0.07778905 -0.12334795 -0.0826737 0.058521796 -0.06528084 -0.051891357
0.042845603 -0.10007902 -0.11090959 0.07891529 0.015026894 0.12373246 0.05190965 -0.07532021
-0.015869372 0.11677481 -0.0352019 -0.019916655 -0.03227323 -0.02943606 0.08193528 -0.042196743
0.057702776 -0.05947431 0.02321365 0.026573213 -0.07093818 0.08557804 0.045201413 -0.14427046
0.11767108 -0.0010893637 0.03296139 0.0626319 0.119015686 -0.05518762 0.10205877 0.037548594
-0.048292413 0.02817762 -0.010812648 0.019763114 -0.077218235 -0.15826227 -0.0013106534 -0.08248773
-0.036741782 0.1354594 -0.018084977 -0.02787962 -0.017129375 -0.085607134 0.010678741 0.08539439
-0.07558911 0.10741968 -0.05906127 -0.04046555 -0.019789297 0.078049056 -0.10646074 -0.074977845
0.06953834 -0.05260256 -0.0003382381 0.010037282 -0.013994117 -0.0037719384 -0.05373873 -0.0427004
0.005653229 -0.08532466 -0.12894943 0.012221061 -0.0042687617 -0.04165609 0.0048094527 -0.0014356802
0.0018194788 0.016657514 0.09142068 -0.15332378 -0.061782192 -0.010987004 -0.06433415 0.057669546
0.05020306 0.016066415 -0.11438481 -0.049204305 0.044879302 0.11822093 0.01133722 0.0119327055
-0.079409316 0.078167096 -0.020847823 0.015702425 0.000513487 -0.12806049 -0.05341481 0.06328259
-0.038955912 -0.109308295 -0.032437563 -0.10690143 -0.029160876 0.07338239 -0.12286881 0.049600296
-0.035652794 0.14271514 0.07793234 -0.026701313 -0.07711653 -0.024092523 -0.005739712 -0.076364286
-0.024240404 -0.056310702 0.007313007 0.017475577 -0.021291817 0.121753894 0.019639952 -0.15148972
0.014211303 -0.12642181 0.13873915 0.089010194 0.14042799 -0.03362706 0.09361547 -0.03864958
-0.042709123 -0.05051115 -0.16710877 0.13515434 -0.08349946 -0.088054515 -0.06968649 -0.14165632
-0.11568454 -0.13990788 -0.08131042 -0.11189477 0.050847195 0.044634424 -0.16004126 -0.003154802
00000000: e6fb 76bc c583 d1bd 22ca 9bbd 9a15 823d
00000010: 9314 f3bd 06a6 d53d 59a0 9b3c 36e4 013d
00000020: 0664 abbd 8b24 0abd 6522 663d deba f23b
00000030: 99ff 013d 590e b7bd e6ec 8dbd ecf0 ff3a
00000040: bb09 30bd 4b35 fdbc 6885 9dbb 144d 813c
00000050: fdf4 a93a 8164 e43d 7300 093e d3d9 0abd
00000060: e59d 263d d6bb 1e3d f5fb d43b 0dbf 7e3c
00000070: 8b0d ebbc 5dce babd edb6 09bd ad06 c23b
00000080: 3f82 9d3c 1aaa 0b3d 2716 823d dfc3 8c3b
00000090: b9f0 303e 83c9 383d c9e7 5b3b 516f 153d
000000a0: 529e cd3c d7f2 d53b 9b39 8dbc 5b39 9e3d
000000b0: 6e9d 64bd 5660 c93c 0785 643c 76c2 a2bd
000000c0: 0d4e f0bc 1a3b bdbc 024b c7bb f0d3 08be
000000d0: 8bfb c73d 6305 34bd 9ff0 26be 63d5 83bd
000000e0: 83b4 093d 92b3 37bc 1187 433e c6e3 ba3d
000000f0: 999a b93d 4fca f83c 5d22 0fbe 7e4d d1bd
00000100: 650b 9b3c a8da 74bd 90c3 a1bd 736b 27bd
00000110: 9f49 8b3c c7bb 01be 17fb 85bd c380 84bd
00000120: 6ea3 03bd c478 44bd b8bd 70bd f9e1 cdbc
00000130: 8be7 9fbc 54af a7bc 5462 203e f45e e1bd
00000140: 1320 883c 9024 61bc 5e26 563d b93b 39bd
00000150: 9566 ddbb cec6 aebc 7309 0b3d 4ae2 793d
00000160: 9e7b 56bd 79ec 863d a2e2 61bd c227 933d
00000170: 2884 1b3d a20a 333d 9985 203d 95b4 4abe
00000180: ffd0 5a3c 3ec6 6a3d dba2 533c 1b89 ecbd
00000190: 5457 063d 4a5a af3d 769b 43bd 8c92 223c
000001a0: a1ed c4bb 741c 1ebc de4f 9fbd da9d fcbd
000001b0: d450 a9bd 8db4 6f3d f6b1 85bd 088c 54bd
000001c0: df7e 2f3d 3bf6 ccbd 9124 e3bd 579e a13d
000001d0: 5d33 763c 7267 fd3d 379f 543d 7b41 9abd
000001e0: 7c00 82bc a227 ef3d de2f 10bd 4128 a3bc
000001f0: ef30 04bd e423 f1bc afcd a73d 7ed6 2cbd
00000200: bf59 6c3d 569b 73bd 8d2a be3c 11b0 d93c
00000210: 0948 91bd 8a43 af3d 1e25 393d a3bb 13be
00000220: 89fd f03d fbc8 8eba 8602 073d 2745 803d
00000230: 7fbe f33d 6a0c 62bd 3004 d13d 8ecc 193d
00000240: 44ce 45bd c1d4 e63c 8827 31bc 41e6 a13c
00000250: 9824 9ebd 810f 22be 3bca abba 54ef a8bd
00000260: 8d7e 16bd deb5 0a3e f226 94bc cd63 e4bc
00000270: e752 8cbc cb52 afbd e3f5 2e3c 41e3 ae3d
00000280: 77ce 9abd d9fe db3d 3bea 71bd 34bf 25bd
00000290: 2a1d a2bc 2fd8 9f3d 1708 dabd fc8d 99bd
000002a0: 1e6a 8e3d c875 57bd 8d55 b1b9 6973 243c
000002b0: 9547 65bc a032 77bb 241d 5cbd 9de6 2ebd
000002c0: b93e b93b b2be aebd 520b 04be d83a 483c
000002d0: f8e0 8bbb 949f 2abd 9d98 9d3b 6f2d bcba
000002e0: 947b ee3a 5775 883c c43a bb3d e900 1dbe
000002f0: 530f 7dbd d602 34bc 9fc1 83bd e736 6c3d
00000300: b9a1 4d3d b79d 833c 9542 eabd 748a 49bd
00000310: 5cd3 373d d11d f23d bfbf 393c 6581 433c
00000320: 5aa1 a2bd 1216 a03d 0ec9 aabc 5fa2 803c
00000330: 879b 063a 4a22 03be 7dc9 5abd 4d9a 813d
00000340: 3c90 1fbd 07dd dfbd 40dd 04bd 23ef dabd
00000350: cae2 eebc 8249 963d a5a2 fbbd ae29 4b3d
00000360: aa08 12bd eb23 123e fe9a 9f3d b6bc dabc
00000370: 45ef 9dbd af5d c5bc 3214 bcbb e164 9cbd
00000380: d093 c6bc 0da6 66bd f3a1 ef3b f128 8f3c
00000390: 2d6c aebc 1b5a f93d f7e3 a03c 1f20 1bbe
000003a0: 86d6 683c b874 01be a311 0e3e fa4a b63d
000003b0: 5bcc 0f3e 87bc 09bd 78b9 bf3d 064f 1ebd
000003c0: c3ef 2ebd c8e4 4ebd 901e 2bbe e665 0a3e
000003d0: c401 abbd ed55 b4bd cab7 8ebd 5b0e 11be
000003e0: 04ec ecbd 0344 0fbe 1486 a6bd 1629 e5bd
000003f0: 2645 503d 96d2 363d dbe1 23be cbc0 4ebb

0.bias f4 [128]
-0.01998384 -0.075563855 0.07517922 -0.0017319751 0.06862074 0.03278915 0.051054366 0.014558846
0.050727487 -1.5840752e-06 -0.039312378 -0.026360542 -0.032572307 0.05959324 0.025966426 0.04020539
0.065278225 0.092377424 -0.044763435 0.046574894 0.085919425 0.0943881 -0.030384792 -9.723371e-07
-0.030028898 0.06423371 -2.248086e-05 0.10979985 0.03222323 -0.029117614 0.016915383 0.049025595
-0.024960617 0.061514203 0.035386328 -0.0603963 0.10950814 -0.004370425 0.10767212 0.038061418
-0.020368474 -1.5674337e-07 0.022099368 -4.6395336e-08 0.0423627 0.010590993 0.040455323 -0.0028920614
-0.08713976 0.028482089 0.102735005 -1.2110904e-07 -0.03057545 0.03612704 -4.0954615e-07 0.065538205
0.096406616 -0.027980652 0.022984173 0.00075948273 0.09291747 -0.08497159 0.00809072 -0.08361031
0.026989482 -0.034879193 0.04006494 -0.061628837 0.014807699 0.0048408983 -9.042964e-05 0.02882914
0.009852596 -0.05061847 0.05490807 0.051069297 0.003019739 -0.024449034 -0.06747105 -7.611797e-08
0.023618648 -0.060702402 -0.084096916 0.037017286 0.06538433 -0.008623474 0.04967837 0.0440361
-0.015164722 -3.8405964e-05 -0.0029384987 -0.016782885 -0.023434175 -0.04909048 -3.9997522e-10 -0.048592974
0.004261444 -0.03705373 -0.03176244 -0.012412286 -0.013444738 0.0562609 -0.01129664 0.015251057
0.030967243 -0.030936535 -0.053264104 0.049463473 -0.073620476 -0.06812718 0.022788748 0.051747944
-0.041576326 0.07889248 0.037987784 -0.06903916 0.08983473 0.011715532 0.093579784 -1.1448808e-07
0.028788997 -0.012970789 0.108361326 -0.08262732 0.0179002 0.021967333 -0.02239706 0.101327665
00000000: 26b5 a3bc 39c1 9abd 90f7 993d 7103 e3ba
00000010: 0889 8c3d ea4d 063d 621e 513d 3a88 6e3c
00000020: a0c7 4f3d 699c d4b5 0406 21bd 10f2 d7bc
00000030: 8a6a 05bd 0b18 743d 8bb7 d43c 68ae 243d
00000040: 97b0 853d 6030 bd3d dd59 37bd 51c5 3e3d
00000050: 86f6 af3d 8c4e c13d 87e9 f8bc 4081 82b5
00000060: 2aff f5bc f78c 833d 4795 bcb7 bede e03d
00000070: 81fc 033d 1088 eebc 2192 8a3c 10cf 483d
00000080: 357a ccbc 51f6 7b3d 41f1 103d 1c62 77bd
00000090: ce45 e03d c835 8fbb 3383 dc3d 4ae6 1b3d
000000a0: c9db a6bc 4a4d 28b4 bc09 b53c 3644 47b3
000000b0: 8384 2d3d d885 2d3c 7bb4 253d bd88 3dbb
000000c0: 5576 b2bd 4553 e93c bb66 d23d 330a 02b4
000000d0: 5e79 fabc f2f9 133d 98df dbb4 e538 863d
000000e0: d570 c53d ae37 e5bc 4e49 bc3c 0618 473a
000000f0: 844b be3d 9605 aebd f08e 043c e23b abbd
00000100: 0c19 dd3c 7cdd 0ebd 221b 243d 856e 7cbd
00000110: fe9b 723c 66a0 9e3b 0ba5 bdb8 172b ec3c
00000120: c86c 213c 5055 4fbd 49e7 603d 0a2e 513d
00000130: d0e6 453b 5749 c8bc 432e 8abd 4c76 a3b3
00000140: e57b c13c 15a3 78bd 013b acbd 709f 173d
00000150: 38e8 853d 7949 0dbc 8c7b 4b3d 335f 343d
00000160: 7475 78bc 1716 21b8 d493 40bb 437c 89bc
00000170: 07f9 bfbc 1913 49bd 82e3 dbaf 6d09 47bd
00000180: 95a3 8b3b a7c5 17bd 5519 02bd e75c 4bbc
00000190: 5247 5cbc d471 663d 8b15 39bc 92df 793c
000001a0: 04af fd3c 9e6e fdbc 762b 5abd 369a 4a3d
000001b0: 55c6 96bd 4386 8bbd 78af ba3c a7f5 533d
000001c0: f04b 2abd 6192 a13d 1499 1b3d 6764 8dbd
000001d0: 45fb b73d 81f2 3f3c c2a6 bf3d 7ddc f5b3
000001e0: e7d6 eb3c 6f83 54bc 8bec dd3d 8338 a9bd
000001f0: 71a3 923c d6f4 b33c 0a7a b7bc e184 cf3d

2.weight f4 [16, 128]
0.12778907 -0.024064105 0.03678711 0.0003919034 0.16893928 -0.088059396 0.10780416 0.050294295
0.07951059 7.169129e-08 0.013128364 -0.00037299914 0.07123948 0.1180232 0.11369016 0.10494399
-0.017773142 0.11938158 0.014589493 0.010661317 0.18991314 -0.051150084 0.029784473 -4.984895e-07
0.07848997 0.20990086 1.5055186e-05 0.1306041 0.12346682 0.020213643 0.11549463 0.4920292
0.07244964 0.14540087 0.12821463 0.17662895 0.10476418 0.15193032 0.13034773 -0.02550396
0.058456138 -3.1669742e-09 0.02793013 7.070803e-09 0.1649154 0.091172315 0.054813158 -0.026022246
-0.08273077 0.16543981 0.12207541 2.650483e-08 0.048732873 -0.06297362 -1.936524e-06 0.37790963
0.11840403 -0.21650454 0.0047149886 0.119212605 0.06665927 -0.13605724 0.23087859 -0.06365322
0.13562849 -0.14600621 0.15346716 -0.11537822 0.10266933 0.075445175 0.15855786 0.10352313
0.053585526 -0.12902 0.10241342 -0.009999638 0.1057194 0.029875632 0.011046845 1.997741e-08
0.16102968 0.06902297 -0.12870675 0.047105853 0.042218998 0.05766765 -0.04691057 -0.009033158
0.062281948 7.9958244e-07 0.06644342 -0.050500512 -0.21226113 -0.0423083 -1.8650771e-10 -0.087970085
0.033552088 -0.010216896 0.004968075 0.13528322 0.051291917 0.1755863 0.12385671 -0.023052512
0.06125131 0.1958599 -0.048605956 0.10315258 -0.048056968 0.02677139 0.040552255 0.122826636
-0.13844773 0.19211727 0.11550605 0.0990873 0.07775246 0.15149237 0.14562537 2.6909638e-07
-0.01655606 0.02202518 0.02294412 0.039781023 0.028397469 -0.00065506436 -0.028844124 0.076786354
-9.516865e-06 1.483765e-06 -9.97361e-05 -8.443129e-06 -4.999236e-05 -2.1531619e-06 1.046609e-06 1.286178e-07
1.0421379e-06 -4.7349895e-11 1.6255824e-07 -4.483184e-07 9.3839566e-07 -9.343051e-05 -8.8552995e-05 -3.1449155e-05
-3.7726495e-05 -0.00013436282 -8.852247e-08 -9.219864e-05 -4.5437424e-05 -5.716475e-06 1.2408644e-05 2.94619e-40
7.767966e-07 1.8257935e-05 3.065338e-10 3.193701e-05 -3.7486654e-05 -6.2688554e-07 -2.2556353e-06 8.54107e-06
-2.2794009e-07 -6.0567778e-05 -0.000117665906 8.346038e-09 -4.9869464e-05 -1.7762828e-06 -0.00010613639 1.2258082e-06
-6.7687147e-06 1.7575341e-12 -1.2336045e-07 -2.7109726e-21 -2.810399e-06 1.965406e-06 9.263396e-06 4.7404264e-06
1.43658e-06 -3.4123048e-05 -5.474138e-05 -4.8885895e-12 -1.2683862e-06 5.2999366e-07 1.4680597e-33 2.2098891e-05
-2.5139954e-05 -3.540396e-06 -3.6966965e-05 -7.897182e-05 -5.2791627e-05 -2.8610933e-05 1.2994873e-06 -1.8997293e-06
-8.5940555e-05 2.0793964e-06 -3.1767475e-05 1.7389823e-07 -0.00016493547 -7.187278e-06 -6.967041e-05 -2.2664384e-05
-7.238375e-05 4.112743e-06 -7.19831e-05 1.2622557e-07 -8.3296756e-05 -1.2327878e-05 -8.039869e-08 -8.998315e-13
-9.073143e-05 1.3388307e-06 6.4754804e-06 1.9049206e-06 -1.3480565e-06 -6.7804605e-05 -1.1722769e-05 1.9082822e-06
-1.3613316e-05 -3.9548788e-11 -7.1347415e-07 -1.8963758e-06 -2.865469e-05 -2.072279e-05 -1.4124284e-13 1.9859376e-06
-2.0044194e-05 -3.3149825e-06 -2.2457156e-05 1.0710077e-06 9.990205e-07 -0.00012468664 -3.67706e-05 -8.5329404e-05
-4.574349e-05 5.323893e-06 7.901244e-07 9.184532e-06 -7.417013e-06 1.171345e-06 6.038526e-06 -1.7629543e-07
-1.0547278e-08 -9.823549e-06 -1.7658003e-05 6.331911e-06 -3.044228e-05 -0.000119926 -1.27822195e-05 1.2901795e-11
-3.7419514e-07 -4.0763687e-05 -6.608045e-05 2.8268173e-07 -4.1788622e-05 1.1848641e-07 8.202917e-06 1.185345e-05
00000000: 23db 023e 1622 c5bc 15ae 163d 6278 cd39
00000010: 6bfe 2c3e 7c58 b4bd 6dc8 dc3d 6401 4e3d
00000020: 73d6 a23d b4f4 9933 5a18 573c 198f c3b9
00000030: 01e6 913d 26b6 f13d 63d6 e83d e0ec d63d
00000040: fb98 91bc 547e f43d c508 6f3c ceac 2e3c
00000050: 9778 423e c082 51bd 91fe f33c f0cf 05b5
00000060: 59bf a03d 40f0 563e 8895 7c37 15bd 053e
00000070: 2cdc fc3d 1597 a53c 7388 ec3d 40eb fb3e
00000080: 7a60 943d f7e3 143e b24a 033e 38de 343e
00000090: 9a8e d63d 9f93 1b3e e079 053e aeed d0bc
000000a0: b46f 6f3d 00a2 59b1 bacd e43c 71f3 f231
000000b0: 95df 283e 8db8 ba3d c383 603d 9b2c d5bc
000000c0: c06e a9bd 0e69 293e ac02 fa3d bdac e332
000000d0: 1f9c 473d 50f8 80bd 3bf5 01b6 5f7d c13e
000000e0: d07d f23d 5eb3 5dbe 3180 9a3b bd25 f43d
000000f0: a884 883d 9752 0bbe 706b 6c3e 9f5c 82bd
00000100: 32e2 0a3e a782 15be 7f26 1d3e 6b4b ecbd
00000110: 4c44 d23d 0083 9a3d fe5c 223e ef03 d43d
00000120: 7f7c 5b3d d21d 04be 21be d13d 86d5 23bc
00000130: 6a83 d83d bebd f43c d3fd 343c ca9a ab32
00000140: f7e4 243e ea5b 8d3d b4cb 03be 11f2 403d
00000150: d4ed 2c3d ea34 6c3d 4c25 40bd d0ff 13bc
00000160: 5b1b 7f3d e3a2 5635 7d13 883d a0d9 4ebd
00000170: fb5a 59be 784b 2dbd 4111 4daf a929 b4bd
00000180: ea6d 093d c564 27bc 3ccb a23b af87 0a3e
00000190: 7917 523d e5cc 333e 96a8 fd3d 9fd8 bcbc
000001a0: a7e2 7a3d 7f8f 483e 0a17 47bd a941 d33d
000001b0: 62d7 44bd ad4f db3c 1f1a 263d 888c fb3d
000001c0: 3ec5 0dbe 64ba 443e 708e ec3d 48ee ca3d
000001d0: af3c 9f3d d120 1b3e d11e 153e 5378 9034
000001e0: 93a0 87bc 266e b43c 4ff5 bb3c 6df1 223d
000001f0: cfa1 e83c a0b8 2bba 834a ecbc 2a42 9d3d
00000200: a0aa 1fb7 c725 c735 6929 d1b8 f7a6 0db7
00000210: e3ae 51b8 0a7f 10b6 3679 8c35 311a 0a34
00000220: 96df 8b35 3e3f 50ae ab8b 2e34 69b0 f0b4
00000230: 0fe6 7b35 20f0 c3b8 87b5 b9b8 46e8 03b8
00000240: 843c 1eb8 bfe3 0cb9 be19 beb3 c55a c1b8
00000250: 1094 3eb8 25d0 bfb6 b82e 5037 4735 0300
00000260: 0e85 5035 9e28 9937 cc84 a82f 1af4 0538
00000270: fd3a 1db8 3f47 28b5 855f 17b6 9e4b 0f37
00000280: b2bf 74b4 280a 7eb8 67c3 f6b8 4362 0f32
00000290: ee2a 51b8 9d68 eeb5 8a95 deb8 7386 a435
000002a0: d11e e3b6 d759 f72b 1075 04b4 d6d5 4c9d
000002b0: 4a9a 3cb6 6be5 0336 fc69 1b37 f40f 9f36
000002c0: 83d0 c035 581f 0fb8 1c9a 65b8 8000 acac
000002d0: 6b3d aab5 e344 0e35 5bec f308 0261 b937
000002e0: a4e3 d2b7 8a97 6db6 fa0c 1bb8 ac9d a5b8
000002f0: 946c 5db8 8301 f0b7 0b6a ae35 34fa feb5
00000300: fc3a b4b8 c28b 0b36 113e 05b8 c8b8 3a34
00000310: 87f2 2cb9 3f2a f1b6 041c 92b8 651f beb7
00000320: bbcc 97b8 3200 8a36 a2f5 96b8 9f88 0734
00000330: 9baf aeb8 d5d3 4eb7 a6a7 acb3 b147 7dab
00000340: 1147 beb8 dfb1 b335 f447 d936 93ac ff35
00000350: deee b4b5 5232 8eb8 e9ac 44b7 0a10 0036
00000360: bf64 64b7 faef 2dae 9285 3fb5 fa86 feb5
00000370: 7a5f f0b7 dad5 adb7 7a06 1faa 2646 0536
00000380: 9424 a8b7 f776 5eb6 6062 bcb7 8bbf 8f35
00000390: 1516 8635 51be 02b9 223a 1ab8 e0f2 b2b8
000003a0: b3dc 3fb8 e5a3 b236 ef18 5435 4417 1a37
000003b0: a8df f8b6 1c37 9d35 8b9e ca36 b84b 3db4
000003c0: 6b33 35b2 d2cf 24b7 4620 94b7 b476 d436
000003d0: 4c5e ffb7 c880 fbb8 3773 56b7 85f8 622d
000003e0: fde4 c8b4 adf9 2ab8 ac94 8ab8 7bc3 9734
000003f0: 3146 2fb8 9872 fe33 439f 0937 2ede 4637

2.bias f4 [16]
0.026352098 -8.185901e-05 0.056031734 0.026973424 -0.042903125 -0.0096238665 0.09872111 -0.041211568
0.1242586 0.069183476 -0.039685436 0.02716135 0.06199541 0.08596678 -0.044256557 -0.02230259
00000000: 5be0 d73c b9ab abb8 8881 653d 5ff7 dc3c
00000010: 30bb 2fbd 6cad 1dbc 4b2e ca3d 76cd 28bd
00000020: 4b7b fe3d 11b0 8d3d 328d 22bd 7b81 de3c
00000030: e6ee 7d3d 5a0f b03d 5d46 35bd ecb3 b6bc

4.weight f4 [3, 16]
0.12964866 1.300602e-05 -0.17340161 -0.056361996 -0.26905507 -0.0006681645 -0.3006372 -0.025247807
-0.13370702 0.15024966 0.32474765 0.22787504 -0.41924545 0.122834146 0.2355949 0.1813124
0.25787184 2.8180462e-05 -0.04905597 -0.10372962 0.30532607 0.0005577382 -0.18307678 -0.010728739
0.17534414 -0.3216775 -0.027904503 -0.1624349 0.35470432 0.04868851 -0.14270088 -0.080306016
-0.3597154 -1.3651526e-05 0.025722858 0.1311266 0.003561393 -3.4264693e-05 0.6264898 0.0080772545
-0.2731343 0.057670813 0.06145585 -0.090854876 0.080759436 -0.61967623 -0.07719885 -0.20814578
00000000: 9ec2 043e 6e34 5a37 3190 31be d6db 66bd
00000010: 96c1 89be c327 2fba 1eed 99be 7dd4 cebc
00000020: 7eea 08be 0cdb 193e 5345 a63e 1358 693e
00000030: 57a7 d6be 7890 fb3d ca3f 713e f5a9 393e
00000040: c707 843e 1565 ec37 eaee 48bd 3270 d4bd
00000050: b353 9c3e 2d35 123a 7b78 3bbe 98c7 2fbc
00000060: 6a8d 333e eab2 a4be fc97 e4bc 5655 26be
00000070: ce9b b53e 9a6d 473d 2e20 12be 7b77 a4bd
00000080: 9e2c b8be dc08 65b7 beb8 d23c 0d46 063e
00000090: 4266 693b 6fb7 0fb8 a361 203f 7656 043c
000000a0: 42d8 8bbe 3b38 6c3d 21b9 7b3d 1f12 babd
000000b0: 3465 a53d 1aa3 1ebf 6e1a 9ebd 2b24 55be

4.bias f4 [3]
0.121893294 0.21934296 -0.13999377
00000000: 31a3 f93d 719b 603e 875a 0fbe
